…
The value is the same before and after calling `init_weights` of EncoderDecoderMask2Former  

decode_head.mask_embed.2.bias - torch.Size([256]): 
The value is the same before and after calling `init_weights` of EncoderDecoderMask2Former  

decode_head.mask_embed.4.weight - torch.Size([256, 256]): 
The value is the same before and after calling `init_weights` of EncoderDecoderMask2Former  

decode_head.mask_embed.4.bias - torch.Size([256]): 
The value is the same before and after calling `init_weights` of EncoderDecoderMask2Former  
2023-09-12 14:08:40,087 - mmseg - INFO - EncoderDecoderMask2Former(
  (backbone): BEiTAdapter(
    (patch_embed): PatchEmbed(
      (proj): Conv2d(3, 768, kernel_size=(16, 16), stride=(16, 16))
    )
    (pos_drop): Dropout(p=0.0, inplace=False)
    (blocks): ModuleList(
      (0): Block(
        (norm1): LayerNorm((768,), eps=1e-06, elementwise_affine=True)
        (attn): Attention(
          (qkv): Linear(in_features=768, out_features=2304, bias=False)
          (attn_drop): Dropout(p=0.0, inplace=False)
          (proj): Linear(in_features=768, out_features=768, bias=True)
          (proj_drop): Dropout(p=0.0, inplace=False)
        )
        (drop_path): Identity()
        (norm2): LayerNorm((768,), eps=1e-06, elementwise_affine=True)
        (mlp): Mlp(
          (fc1): Linear(in_features=768, out_features=3072, bias=True)
          (act): GELU()
          (fc2): Linear(in_features=3072, out_features=768, bias=True)
          (drop): Dropout(p=0.0, inplace=False)
        )
      )
      (1): Block(
        (norm1): LayerNorm((768,), eps=1e-06, elementwise_affine=True)
        (attn): Attention(
          (qkv): Linear(in_features=768, out_features=2304, bias=False)
          (attn_drop): Dropout(p=0.0, inplace=False)
          (proj): Linear(in_features=768, out_features=768, bias=True)
          (proj_drop): Dropout(p=0.0, inplace=False)
        )
        (drop_path): DropPath(p=0.027272729203104973)
        (norm2): LayerNorm((768,), eps=1e-06, elementwise_affine=True)
        (mlp): Mlp(
          (fc1): Linear(in_features=768, out_features=3072, bias=True)
          (act): GELU()
          (fc2): Linear(in_features=3072, out_features=768, bias=True)
          (drop): Dropout(p=0.0, inplace=False)
        )
      )
      (2): Block(
        (norm1): LayerNorm((768,), eps=1e-06, elementwise_affine=True)
        (attn): Attention(
          (qkv): Linear(in_features=768, out_features=2304, bias=False)
          (attn_drop): Dropout(p=0.0, inplace=False)
          (proj): Linear(in_features=768, out_features=768, bias=True)
          (proj_drop): Dropout(p=0.0, inplace=False)
        )
        (drop_path): DropPath(p=0.054545458406209946)
        (norm2): LayerNorm((768,), eps=1e-06, elementwise_affine=True)
        (mlp): Mlp(
          (fc1): Linear(in_features=768, out_features=3072, bias=True)
          (act): GELU()
          (fc2): Linear(in_features=3072, out_features=768, bias=True)
          (drop): Dropout(p=0.0, inplace=False)
        )
      )
      (3): Block(
        (norm1): LayerNorm((768,), eps=1e-06, elementwise_affine=True)
        (attn): Attention(
          (qkv): Linear(in_features=768, out_features=2304, bias=False)
          (attn_drop): Dropout(p=0.0, inplace=False)
          (proj): Linear(in_features=768, out_features=768, bias=True)
          (proj_drop): Dropout(p=0.0, inplace=False)
        )
        (drop_path): DropPath(p=0.08181818574666977)
        (norm2): LayerNorm((768,), eps=1e-06, elementwise_affine=True)
        (mlp): Mlp(
          (fc1): Linear(in_features=768, out_features=3072, bias=True)
          (act): GELU()
          (fc2): Linear(in_features=3072, out_features=768, bias=True)
          (drop): Dropout(p=0.0, inplace=False)
        )
      )
      (4): Block(
        (norm1): LayerNorm((768,), eps=1e-06, elementwise_affine=True)
        (attn): Attention(
          (qkv): Linear(in_features=768, out_features=2304, bias=False)
          (attn_drop): Dropout(p=0.0, inplace=False)
          (proj): Linear(in_features=768, out_features=768, bias=True)
          (proj_drop): Dropout(p=0.0, inplace=False)
        )
        (drop_path): DropPath(p=0.10909091681241989)
        (norm2): LayerNorm((768,), eps=1e-06, elementwise_affine=True)
        (mlp): Mlp(
          (fc1): Linear(in_features=768, out_features=3072, bias=True)
          (act): GELU()
          (fc2): Linear(in_features=3072, out_features=768, bias=True)
          (drop): Dropout(p=0.0, inplace=False)
        )
      )
      (5): Block(
        (norm1): LayerNorm((768,), eps=1e-06, elementwise_affine=True)
        (attn): Attention(
          (qkv): Linear(in_features=768, out_features=2304, bias=False)
          (attn_drop): Dropout(p=0.0, inplace=False)
          (proj): Linear(in_features=768, out_features=768, bias=True)
          (proj_drop): Dropout(p=0.0, inplace=False)
        )
        (drop_path): DropPath(p=0.13636364042758942)
        (norm2): LayerNorm((768,), eps=1e-06, elementwise_affine=True)
        (mlp): Mlp(
          (fc1): Linear(in_features=768, out_features=3072, bias=True)
          (act): GELU()
          (fc2): Linear(in_features=3072, out_features=768, bias=True)
          (drop): Dropout(p=0.0, inplace=False)
        )
      )
      (6): Block(
        (norm1): LayerNorm((768,), eps=1e-06, elementwise_affine=True)
        (attn): Attention(
          (qkv): Linear(in_features=768, out_features=2304, bias=False)
          (attn_drop): Dropout(p=0.0, inplace=False)
          (proj): Linear(in_features=768, out_features=768, bias=True)
          (proj_drop): Dropout(p=0.0, inplace=False)
        )
        (drop_path): DropPath(p=0.16363637149333954)
        (norm2): LayerNorm((768,), eps=1e-06, elementwise_affine=True)
        (mlp): Mlp(
          (fc1): Linear(in_features=768, out_features=3072, bias=True)
          (act): GELU()
          (fc2): Linear(in_features=3072, out_features=768, bias=True)
          (drop): Dropout(p=0.0, inplace=False)
        )
      )
      (7): Block(
        (norm1): LayerNorm((768,), eps=1e-06, elementwise_affine=True)
        (attn): Attention(
          (qkv): Linear(in_features=768, out_features=2304, bias=False)
          (attn_drop): Dropout(p=0.0, inplace=False)
          (proj): Linear(in_features=768, out_features=768, bias=True)
          (proj_drop): Dropout(p=0.0, inplace=False)
        )
        (drop_path): DropPath(p=0.19090908765792847)
        (norm2): LayerNorm((768,), eps=1e-06, elementwise_affine=True)
        (mlp): Mlp(
          (fc1): Linear(in_features=768, out_features=3072, bias=True)
          (act): GELU()
          (fc2): Linear(in_features=3072, out_features=768, bias=True)
          (drop): Dropout(p=0.0, inplace=False)
        )
      )
      (8): Block(
        (norm1): LayerNorm((768,), eps=1e-06, elementwise_affine=True)
        (attn): Attention(
          (qkv): Linear(in_features=768, out_features=2304, bias=False)
          (attn_drop): Dropout(p=0.0, inplace=False)
          (proj): Linear(in_features=768, out_features=768, bias=True)
          (proj_drop): Dropout(p=0.0, inplace=False)
        )
        (drop_path): DropPath(p=0.2181818187236786)
        (norm2): LayerNorm((768,), eps=1e-06, elementwise_affine=True)
        (mlp): Mlp(
          (fc1): Linear(in_features=768, out_features=3072, bias=True)
          (act): GELU()
          (fc2): Linear(in_features=3072, out_features=768, bias=True)
          (drop): Dropout(p=0.0, inplace=False)
        )
      )
      (9): Block(
        (norm1): LayerNorm((768,), eps=1e-06, elementwise_affine=True)
        (attn): Attention(
          (qkv): Linear(in_features=768, out_features=2304, bias=False)
          (attn_drop): Dropout(p=0.0, inplace=False)
          (proj): Linear(in_features=768, out_features=768, bias=True)
          (proj_drop): Dropout(p=0.0, inplace=False)
        )
        (drop_path): DropPath(p=0.2454545497894287)
        (norm2): LayerNorm((768,), eps=1e-06, elementwise_affine=True)
        (mlp): Mlp(
          (fc1): Linear(in_features=768, out_features=3072, bias=True)
          (act): GELU()
          (fc2): Linear(in_features=3072, out_features=768, bias=True)
          (drop): Dropout(p=0.0, inplace=False)
        )
      )
      (10): Block(
        (norm1): LayerNorm((768,), eps=1e-06, elementwise_affine=True)
        (attn): Attention(
          (qkv): Linear(in_features=768, out_features=2304, bias=False)
          (attn_drop): Dropout(p=0.0, inplace=False)
          (proj): Linear(in_features=768, out_features=768, bias=True)
          (proj_drop): Dropout(p=0.0, inplace=False)
        )
        (drop_path): DropPath(p=0.27272728085517883)
        (norm2): LayerNorm((768,), eps=1e-06, elementwise_affine=True)
        (mlp): Mlp(
          (fc1): Linear(in_features=768, out_features=3072, bias=True)
          (act): GELU()
          (fc2): Linear(in_features=3072, out_features=768, bias=True)
          (drop): Dropout(p=0.0, inplace=False)
        )
      )
      (11): Block(
        (norm1): LayerNorm((768,), eps=1e-06, elementwise_affine=True)
        (attn): Attention(
          (qkv): Linear(in_features=768, out_features=2304, bias=False)
          (attn_drop): Dropout(p=0.0, inplace=False)
          (proj): Linear(in_features=768, out_features=768, bias=True)
          (proj_drop): Dropout(p=0.0, inplace=False)
        )
        (drop_path): DropPath(p=0.30000001192092896)
        (norm2): LayerNorm((768,), eps=1e-06, elementwise_affine=True)
        (mlp): Mlp(
          (fc1): Linear(in_features=768, out_features=3072, bias=True)
          (act): GELU()
          (fc2): Linear(in_features=3072, out_features=768, bias=True)
          (drop): Dropout(p=0.0, inplace=False)
        )
      )
    )
    (spm): SpatialPriorModule(
      (stem): Sequential(
        (0): Conv2d(3, 64, kernel_size=(3, 3), stride=(2, 2), padding=(1, 1), bias=False)
        (1): SyncBatchNorm(64, eps=1e-05, momentum=0.1, affine=True, track_running_stats=True)
        (2): ReLU(inplace=True)
        (3): Conv2d(64, 64, kernel_size=(3, 3), stride=(1, 1), padding=(1, 1), bias=False)
        (4): SyncBatchNorm(64, eps=1e-05, momentum=0.1, affine=True, track_running_stats=True)
        (5): ReLU(inplace=True)
        (6): Conv2d(64, 64, kernel_size=(3, 3), stride=(1, 1), padding=(1, 1), bias=False)
        (7): SyncBatchNorm(64, eps=1e-05, momentum=0.1, affine=True, track_running_stats=True)
        (8): ReLU(inplace=True)
        (9): MaxPool2d(kernel_size=3, stride=2, padding=1, dilation=1, ceil_mode=False)
      )
      (conv2): Sequential(
        (0): Conv2d(64, 128, kernel_size=(3, 3), stride=(2, 2), padding=(1, 1), bias=False)
        (1): SyncBatchNorm(128, eps=1e-05, momentum=0.1, affine=True, track_running_stats=True)
        (2): ReLU(inplace=True)
      )
      (conv3): Sequential(
        (0): Conv2d(128, 256, kernel_size=(3, 3), stride=(2, 2), padding=(1, 1), bias=False)
        (1): SyncBatchNorm(256, eps=1e-05, momentum=0.1, affine=True, track_running_stats=True)
        (2): ReLU(inplace=True)
      )
      (conv4): Sequential(
        (0): Conv2d(256, 256, kernel_size=(3, 3), stride=(2, 2), padding=(1, 1), bias=False)
        (1): SyncBatchNorm(256, eps=1e-05, momentum=0.1, affine=True, track_running_stats=True)
        (2): ReLU(inplace=True)
      )
      (fc1): Conv2d(64, 768, kernel_size=(1, 1), stride=(1, 1))
      (fc2): Conv2d(128, 768, kernel_size=(1, 1), stride=(1, 1))
      (fc3): Conv2d(256, 768, kernel_size=(1, 1), stride=(1, 1))
      (fc4): Conv2d(256, 768, kernel_size=(1, 1), stride=(1, 1))
    )
    (interactions): Sequential(
      (0): InteractionBlockWithCls(
        (injector): Injector(
          (query_norm): LayerNorm((768,), eps=1e-06, elementwise_affine=True)
          (feat_norm): LayerNorm((768,), eps=1e-06, elementwise_affine=True)
          (attn): MSDeformAttn(
            (sampling_offsets): Linear(in_features=768, out_features=384, bias=True)
            (attention_weights): Linear(in_features=768, out_features=192, bias=True)
            (value_proj): Linear(in_features=768, out_features=384, bias=True)
            (output_proj): Linear(in_features=384, out_features=768, bias=True)
          )
        )
        (extractor): Extractor(
          (query_norm): LayerNorm((768,), eps=1e-06, elementwise_affine=True)
          (feat_norm): LayerNorm((768,), eps=1e-06, elementwise_affine=True)
          (attn): MSDeformAttn(
            (sampling_offsets): Linear(in_features=768, out_features=128, bias=True)
            (attention_weights): Linear(in_features=768, out_features=64, bias=True)
            (value_proj): Linear(in_features=768, out_features=384, bias=True)
            (output_proj): Linear(in_features=384, out_features=768, bias=True)
          )
          (ffn): ConvFFN(
            (fc1): Linear(in_features=768, out_features=192, bias=True)
            (dwconv): DWConv(
              (dwconv): Conv2d(192, 192, kernel_size=(3, 3), stride=(1, 1), padding=(1, 1), groups=192)
            )
            (act): GELU()
            (fc2): Linear(in_features=192, out_features=768, bias=True)
            (drop): Dropout(p=0.0, inplace=False)
          )
          (ffn_norm): LayerNorm((768,), eps=1e-06, elementwise_affine=True)
          (drop_path): DropPath()
        )
      )
      (1): InteractionBlockWithCls(
        (injector): Injector(
          (query_norm): LayerNorm((768,), eps=1e-06, elementwise_affine=True)
          (feat_norm): LayerNorm((768,), eps=1e-06, elementwise_affine=True)
          (attn): MSDeformAttn(
            (sampling_offsets): Linear(in_features=768, out_features=384, bias=True)
            (attention_weights): Linear(in_features=768, out_features=192, bias=True)
            (value_proj): Linear(in_features=768, out_features=384, bias=True)
            (output_proj): Linear(in_features=384, out_features=768, bias=True)
          )
        )
        (extractor): Extractor(
          (query_norm): LayerNorm((768,), eps=1e-06, elementwise_affine=True)
          (feat_norm): LayerNorm((768,), eps=1e-06, elementwise_affine=True)
          (attn): MSDeformAttn(
            (sampling_offsets): Linear(in_features=768, out_features=128, bias=True)
            (attention_weights): Linear(in_features=768, out_features=64, bias=True)
            (value_proj): Linear(in_features=768, out_features=384, bias=True)
            (output_proj): Linear(in_features=384, out_features=768, bias=True)
          )
          (ffn): ConvFFN(
            (fc1): Linear(in_features=768, out_features=192, bias=True)
            (dwconv): DWConv(
              (dwconv): Conv2d(192, 192, kernel_size=(3, 3), stride=(1, 1), padding=(1, 1), groups=192)
            )
            (act): GELU()
            (fc2): Linear(in_features=192, out_features=768, bias=True)
            (drop): Dropout(p=0.0, inplace=False)
          )
          (ffn_norm): LayerNorm((768,), eps=1e-06, elementwise_affine=True)
          (drop_path): DropPath()
        )
      )
      (2): InteractionBlockWithCls(
        (injector): Injector(
          (query_norm): LayerNorm((768,), eps=1e-06, elementwise_affine=True)
          (feat_norm): LayerNorm((768,), eps=1e-06, elementwise_affine=True)
          (attn): MSDeformAttn(
            (sampling_offsets): Linear(in_features=768, out_features=384, bias=True)
            (attention_weights): Linear(in_features=768, out_features=192, bias=True)
            (value_proj): Linear(in_features=768, out_features=384, bias=True)
            (output_proj): Linear(in_features=384, out_features=768, bias=True)
          )
        )
        (extractor): Extractor(
          (query_norm): LayerNorm((768,), eps=1e-06, elementwise_affine=True)
          (feat_norm): LayerNorm((768,), eps=1e-06, elementwise_affine=True)
          (attn): MSDeformAttn(
            (sampling_offsets): Linear(in_features=768, out_features=128, bias=True)
            (attention_weights): Linear(in_features=768, out_features=64, bias=True)
            (value_proj): Linear(in_features=768, out_features=384, bias=True)
            (output_proj): Linear(in_features=384, out_features=768, bias=True)
          )
          (ffn): ConvFFN(
            (fc1): Linear(in_features=768, out_features=192, bias=True)
            (dwconv): DWConv(
              (dwconv): Conv2d(192, 192, kernel_size=(3, 3), stride=(1, 1), padding=(1, 1), groups=192)
            )
            (act): GELU()
            (fc2): Linear(in_features=192, out_features=768, bias=True)
            (drop): Dropout(p=0.0, inplace=False)
          )
          (ffn_norm): LayerNorm((768,), eps=1e-06, elementwise_affine=True)
          (drop_path): DropPath()
        )
      )
      (3): InteractionBlockWithCls(
        (injector): Injector(
          (query_norm): LayerNorm((768,), eps=1e-06, elementwise_affine=True)
          (feat_norm): LayerNorm((768,), eps=1e-06, elementwise_affine=True)
          (attn): MSDeformAttn(
            (sampling_offsets): Linear(in_features=768, out_features=384, bias=True)
            (attention_weights): Linear(in_features=768, out_features=192, bias=True)
            (value_proj): Linear(in_features=768, out_features=384, bias=True)
            (output_proj): Linear(in_features=384, out_features=768, bias=True)
          )
        )
        (extractor): Extractor(
          (query_norm): LayerNorm((768,), eps=1e-06, elementwise_affine=True)
          (feat_norm): LayerNorm((768,), eps=1e-06, elementwise_affine=True)
          (attn): MSDeformAttn(
            (sampling_offsets): Linear(in_features=768, out_features=128, bias=True)
            (attention_weights): Linear(in_features=768, out_features=64, bias=True)
            (value_proj): Linear(in_features=768, out_features=384, bias=True)
            (output_proj): Linear(in_features=384, out_features=768, bias=True)
          )
          (ffn): ConvFFN(
            (fc1): Linear(in_features=768, out_features=192, bias=True)
            (dwconv): DWConv(
              (dwconv): Conv2d(192, 192, kernel_size=(3, 3), stride=(1, 1), padding=(1, 1), groups=192)
            )
            (act): GELU()
            (fc2): Linear(in_features=192, out_features=768, bias=True)
            (drop): Dropout(p=0.0, inplace=False)
          )
          (ffn_norm): LayerNorm((768,), eps=1e-06, elementwise_affine=True)
          (drop_path): DropPath()
        )
        (extra_extractors): Sequential(
          (0): Extractor(
            (query_norm): LayerNorm((768,), eps=1e-06, elementwise_affine=True)
            (feat_norm): LayerNorm((768,), eps=1e-06, elementwise_affine=True)
            (attn): MSDeformAttn(
              (sampling_offsets): Linear(in_features=768, out_features=128, bias=True)
              (attention_weights): Linear(in_features=768, out_features=64, bias=True)
              (value_proj): Linear(in_features=768, out_features=384, bias=True)
              (output_proj): Linear(in_features=384, out_features=768, bias=True)
            )
            (ffn): ConvFFN(
              (fc1): Linear(in_features=768, out_features=192, bias=True)
              (dwconv): DWConv(
                (dwconv): Conv2d(192, 192, kernel_size=(3, 3), stride=(1, 1), padding=(1, 1), groups=192)
              )
              (act): GELU()
              (fc2): Linear(in_features=192, out_features=768, bias=True)
              (drop): Dropout(p=0.0, inplace=False)
            )
            (ffn_norm): LayerNorm((768,), eps=1e-06, elementwise_affine=True)
            (drop_path): DropPath()
          )
          (1): Extractor(
            (query_norm): LayerNorm((768,), eps=1e-06, elementwise_affine=True)
            (feat_norm): LayerNorm((768,), eps=1e-06, elementwise_affine=True)
            (attn): MSDeformAttn(
              (sampling_offsets): Linear(in_features=768, out_features=128, bias=True)
              (attention_weights): Linear(in_features=768, out_features=64, bias=True)
              (value_proj): Linear(in_features=768, out_features=384, bias=True)
              (output_proj): Linear(in_features=384, out_features=768, bias=True)
            )
            (ffn): ConvFFN(
              (fc1): Linear(in_features=768, out_features=192, bias=True)
              (dwconv): DWConv(
                (dwconv): Conv2d(192, 192, kernel_size=(3, 3), stride=(1, 1), padding=(1, 1), groups=192)
              )
              (act): GELU()
              (fc2): Linear(in_features=192, out_features=768, bias=True)
              (drop): Dropout(p=0.0, inplace=False)
            )
            (ffn_norm): LayerNorm((768,), eps=1e-06, elementwise_affine=True)
            (drop_path): DropPath()
          )
        )
      )
    )
    (up): ConvTranspose2d(768, 768, kernel_size=(2, 2), stride=(2, 2))
    (norm1): SyncBatchNorm(768, eps=1e-05, momentum=0.1, affine=True, track_running_stats=True)
    (norm2): SyncBatchNorm(768, eps=1e-05, momentum=0.1, affine=True, track_running_stats=True)
    (norm3): SyncBatchNorm(768, eps=1e-05, momentum=0.1, affine=True, track_running_stats=True)
    (norm4): SyncBatchNorm(768, eps=1e-05, momentum=0.1, affine=True, track_running_stats=True)
  )
  (decode_head): Mask2FormerHead(
    input_transform=multiple_select, ignore_index=255, align_corners=False
    (loss_decode): CrossEntropyLoss(avg_non_ignore=False)
    (conv_seg): None
    (dropout): Dropout2d(p=0.1, inplace=False)
    (pixel_decoder): MSDeformAttnPixelDecoder(
      (input_convs): ModuleList(
        (0): ConvModule(
          (conv): Conv2d(768, 256, kernel_size=(1, 1), stride=(1, 1))
          (gn): GroupNorm(32, 256, eps=1e-05, affine=True)
        )
        (1): ConvModule(
          (conv): Conv2d(768, 256, kernel_size=(1, 1), stride=(1, 1))
          (gn): GroupNorm(32, 256, eps=1e-05, affine=True)
        )
        (2): ConvModule(
          (conv): Conv2d(768, 256, kernel_size=(1, 1), stride=(1, 1))
          (gn): GroupNorm(32, 256, eps=1e-05, affine=True)
        )
      )
      (encoder): DetrTransformerEncoder(
        (layers): ModuleList(
          (0): BaseTransformerLayer(
            (attentions): ModuleList(
              (0): MultiScaleDeformableAttention(
                (dropout): Dropout(p=0.0, inplace=False)
                (sampling_offsets): Linear(in_features=256, out_features=192, bias=True)
                (attention_weights): Linear(in_features=256, out_features=96, bias=True)
                (value_proj): Linear(in_features=256, out_features=256, bias=True)
                (output_proj): Linear(in_features=256, out_features=256, bias=True)
              )
            )
            (ffns): ModuleList(
              (0): FFN(
                (activate): ReLU(inplace=True)
                (layers): Sequential(
                  (0): Sequential(
                    (0): Linear(in_features=256, out_features=1024, bias=True)
                    (1): ReLU(inplace=True)
                    (2): Dropout(p=0.0, inplace=False)
                  )
                  (1): Linear(in_features=1024, out_features=256, bias=True)
                  (2): Dropout(p=0.0, inplace=False)
                )
                (dropout_layer): Identity()
              )
            )
            (norms): ModuleList(
              (0): LayerNorm((256,), eps=1e-05, elementwise_affine=True)
              (1): LayerNorm((256,), eps=1e-05, elementwise_affine=True)
            )
          )
          (1): BaseTransformerLayer(
            (attentions): ModuleList(
              (0): MultiScaleDeformableAttention(
                (dropout): Dropout(p=0.0, inplace=False)
                (sampling_offsets): Linear(in_features=256, out_features=192, bias=True)
                (attention_weights): Linear(in_features=256, out_features=96, bias=True)
                (value_proj): Linear(in_features=256, out_features=256, bias=True)
                (output_proj): Linear(in_features=256, out_features=256, bias=True)
              )
            )
            (ffns): ModuleList(
              (0): FFN(
                (activate): ReLU(inplace=True)
                (layers): Sequential(
                  (0): Sequential(
                    (0): Linear(in_features=256, out_features=1024, bias=True)
                    (1): ReLU(inplace=True)
                    (2): Dropout(p=0.0, inplace=False)
                  )
                  (1): Linear(in_features=1024, out_features=256, bias=True)
                  (2): Dropout(p=0.0, inplace=False)
                )
                (dropout_layer): Identity()
              )
            )
            (norms): ModuleList(
              (0): LayerNorm((256,), eps=1e-05, elementwise_affine=True)
              (1): LayerNorm((256,), eps=1e-05, elementwise_affine=True)
            )
          )
          (2): BaseTransformerLayer(
            (attentions): ModuleList(
              (0): MultiScaleDeformableAttention(
                (dropout): Dropout(p=0.0, inplace=False)
                (sampling_offsets): Linear(in_features=256, out_features=192, bias=True)
                (attention_weights): Linear(in_features=256, out_features=96, bias=True)
                (value_proj): Linear(in_features=256, out_features=256, bias=True)
                (output_proj): Linear(in_features=256, out_features=256, bias=True)
              )
            )
            (ffns): ModuleList(
              (0): FFN(
                (activate): ReLU(inplace=True)
                (layers): Sequential(
                  (0): Sequential(
                    (0): Linear(in_features=256, out_features=1024, bias=True)
                    (1): ReLU(inplace=True)
                    (2): Dropout(p=0.0, inplace=False)
                  )
                  (1): Linear(in_features=1024, out_features=256, bias=True)
                  (2): Dropout(p=0.0, inplace=False)
                )
                (dropout_layer): Identity()
              )
            )
            (norms): ModuleList(
              (0): LayerNorm((256,), eps=1e-05, elementwise_affine=True)
              (1): LayerNorm((256,), eps=1e-05, elementwise_affine=True)
            )
          )
          (3): BaseTransformerLayer(
            (attentions): ModuleList(
              (0): MultiScaleDeformableAttention(
                (dropout): Dropout(p=0.0, inplace=False)
                (sampling_offsets): Linear(in_features=256, out_features=192, bias=True)
                (attention_weights): Linear(in_features=256, out_features=96, bias=True)
                (value_proj): Linear(in_features=256, out_features=256, bias=True)
                (output_proj): Linear(in_features=256, out_features=256, bias=True)
              )
            )
            (ffns): ModuleList(
              (0): FFN(
                (activate): ReLU(inplace=True)
                (layers): Sequential(
                  (0): Sequential(
                    (0): Linear(in_features=256, out_features=1024, bias=True)
                    (1): ReLU(inplace=True)
                    (2): Dropout(p=0.0, inplace=False)
                  )
                  (1): Linear(in_features=1024, out_features=256, bias=True)
                  (2): Dropout(p=0.0, inplace=False)
                )
                (dropout_layer): Identity()
              )
            )
            (norms): ModuleList(
              (0): LayerNorm((256,), eps=1e-05, elementwise_affine=True)
              (1): LayerNorm((256,), eps=1e-05, elementwise_affine=True)
            )
          )
          (4): BaseTransformerLayer(
            (attentions): ModuleList(
              (0): MultiScaleDeformableAttention(
                (dropout): Dropout(p=0.0, inplace=False)
                (sampling_offsets): Linear(in_features=256, out_features=192, bias=True)
                (attention_weights): Linear(in_features=256, out_features=96, bias=True)
                (value_proj): Linear(in_features=256, out_features=256, bias=True)
                (output_proj): Linear(in_features=256, out_features=256, bias=True)
              )
            )
            (ffns): ModuleList(
              (0): FFN(
                (activate): ReLU(inplace=True)
                (layers): Sequential(
                  (0): Sequential(
                    (0): Linear(in_features=256, out_features=1024, bias=True)
                    (1): ReLU(inplace=True)
                    (2): Dropout(p=0.0, inplace=False)
                  )
                  (1): Linear(in_features=1024, out_features=256, bias=True)
                  (2): Dropout(p=0.0, inplace=False)
                )
                (dropout_layer): Identity()
              )
            )
            (norms): ModuleList(
              (0): LayerNorm((256,), eps=1e-05, elementwise_affine=True)
              (1): LayerNorm((256,), eps=1e-05, elementwise_affine=True)
            )
          )
          (5): BaseTransformerLayer(
            (attentions): ModuleList(
              (0): MultiScaleDeformableAttention(
                (dropout): Dropout(p=0.0, inplace=False)
                (sampling_offsets): Linear(in_features=256, out_features=192, bias=True)
                (attention_weights): Linear(in_features=256, out_features=96, bias=True)
                (value_proj): Linear(in_features=256, out_features=256, bias=True)
                (output_proj): Linear(in_features=256, out_features=256, bias=True)
              )
            )
            (ffns): ModuleList(
              (0): FFN(
                (activate): ReLU(inplace=True)
                (layers): Sequential(
                  (0): Sequential(
                    (0): Linear(in_features=256, out_features=1024, bias=True)
                    (1): ReLU(inplace=True)
                    (2): Dropout(p=0.0, inplace=False)
                  )
                  (1): Linear(in_features=1024, out_features=256, bias=True)
                  (2): Dropout(p=0.0, inplace=False)
                )
                (dropout_layer): Identity()
              )
            )
            (norms): ModuleList(
              (0): LayerNorm((256,), eps=1e-05, elementwise_affine=True)
              (1): LayerNorm((256,), eps=1e-05, elementwise_affine=True)
            )
          )
        )
      )
      (postional_encoding): SinePositionalEncoding(num_feats=128, temperature=10000, normalize=True, scale=6.283185307179586, eps=1e-06)
      (level_encoding): Embedding(3, 256)
      (lateral_convs): ModuleList(
        (0): ConvModule(
          (conv): Conv2d(768, 256, kernel_size=(1, 1), stride=(1, 1), bias=False)
          (gn): GroupNorm(32, 256, eps=1e-05, affine=True)
        )
      )
      (output_convs): ModuleList(
        (0): ConvModule(
          (conv): Conv2d(256, 256, kernel_size=(3, 3), stride=(1, 1), padding=(1, 1), bias=False)
          (gn): GroupNorm(32, 256, eps=1e-05, affine=True)
          (activate): ReLU(inplace=True)
        )
      )
      (mask_feature): Conv2d(256, 256, kernel_size=(1, 1), stride=(1, 1))
    )
    (transformer_decoder): DetrTransformerDecoder(
      (layers): ModuleList(
        (0): DetrTransformerDecoderLayer(
          (attentions): ModuleList(
            (0): MultiheadAttention(
              (attn): MultiheadAttention(
                (out_proj): NonDynamicallyQuantizableLinear(in_features=256, out_features=256, bias=True)
              )
              (proj_drop): Dropout(p=0.0, inplace=False)
              (dropout_layer): Identity()
            )
            (1): MultiheadAttention(
              (attn): MultiheadAttention(
                (out_proj): NonDynamicallyQuantizableLinear(in_features=256, out_features=256, bias=True)
              )
              (proj_drop): Dropout(p=0.0, inplace=False)
              (dropout_layer): Identity()
            )
          )
          (ffns): ModuleList(
            (0): FFN(
              (activate): ReLU(inplace=True)
              (layers): Sequential(
                (0): Sequential(
                  (0): Linear(in_features=256, out_features=2048, bias=True)
                  (1): ReLU(inplace=True)
                  (2): Dropout(p=0.0, inplace=False)
                )
                (1): Linear(in_features=2048, out_features=256, bias=True)
                (2): Dropout(p=0.0, inplace=False)
              )
              (dropout_layer): Identity()
            )
          )
          (norms): ModuleList(
            (0): LayerNorm((256,), eps=1e-05, elementwise_affine=True)
            (1): LayerNorm((256,), eps=1e-05, elementwise_affine=True)
            (2): LayerNorm((256,), eps=1e-05, elementwise_affine=True)
          )
        )
        (1): DetrTransformerDecoderLayer(
          (attentions): ModuleList(
            (0): MultiheadAttention(
              (attn): MultiheadAttention(
                (out_proj): NonDynamicallyQuantizableLinear(in_features=256, out_features=256, bias=True)
              )
              (proj_drop): Dropout(p=0.0, inplace=False)
…
              (proj_drop): Dropout(p=0.0, inplace=False)
              (dropout_layer): Identity()
            )
            (1): MultiheadAttention(
              (attn): MultiheadAttention(
                (out_proj): NonDynamicallyQuantizableLinear(in_features=256, out_features=256, bias=True)
              )
              (proj_drop): Dropout(p=0.0, inplace=False)
              (dropout_layer): Identity()
            )
          )
          (ffns): ModuleList(
            (0): FFN(
              (activate): ReLU(inplace=True)
              (layers): Sequential(
                (0): Sequential(
                  (0): Linear(in_features=256, out_features=2048, bias=True)
                  (1): ReLU(inplace=True)
                  (2): Dropout(p=0.0, inplace=False)
                )
                (1): Linear(in_features=2048, out_features=256, bias=True)
                (2): Dropout(p=0.0, inplace=False)
              )
              (dropout_layer): Identity()
            )
          )
          (norms): ModuleList(
            (0): LayerNorm((256,), eps=1e-05, elementwise_affine=True)
            (1): LayerNorm((256,), eps=1e-05, elementwise_affine=True)
            (2): LayerNorm((256,), eps=1e-05, elementwise_affine=True)
          )
        )
      )
      (post_norm): LayerNorm((256,), eps=1e-05, elementwise_affine=True)
    )
    (decoder_input_projs): ModuleList(
      (0): Identity()
      (1): Identity()
      (2): Identity()
    )
    (decoder_positional_encoding): SinePositionalEncoding(num_feats=128, temperature=10000, normalize=True, scale=6.283185307179586, eps=1e-06)
    (query_embed): Embedding(100, 256)
    (query_feat): Embedding(100, 256)
    (level_embed): Embedding(3, 256)
    (cls_embed): Linear(in_features=256, out_features=151, bias=True)
    (mask_embed): Sequential(
      (0): Linear(in_features=256, out_features=256, bias=True)
      (1): ReLU(inplace=True)
      (2): Linear(in_features=256, out_features=256, bias=True)
      (3): ReLU(inplace=True)
      (4): Linear(in_features=256, out_features=256, bias=True)
    )
    (loss_cls): CrossEntropyLoss(avg_non_ignore=False)
    (loss_mask): CrossEntropyLoss(avg_non_ignore=False)
    (loss_dice): DiceLoss()
  )
)
2023-09-12 14:08:40,365 - mmseg - INFO - Loaded 20210 images
2023-09-12 14:08:41,508 - mmseg - INFO - Loaded 2000 images
2023-09-12 14:08:41,509 - mmseg - INFO - load checkpoint from local path: /data/hwt/mmseg/vit_base/latest.pth
…
